checkpoint.pth (torch_old, 8280 bytes, 6 tensors)

input.weight f4 [32, 37]
000000 1e 03 3a 3e d1 10 19 3d 22 20 f4 bd a9 3e 7b 3d
       0.18165252 0.037369553 -0.11920191 0.061339054
000010 25 e6 ea be 9d d2 ab be 8b d0 c8 3e 8a df d2 3e
       -0.4587871 -0.33559123 0.39221606 0.41186172
000020 8a c3 1d 3e 85 04 d4 3e d4 b6 d4 bc c7 b4 e7 3c
       0.15406623 0.41409698 -0.025966085 0.028284444
000030 7a c7 08 bb 46 a8 e3 be 4e df 5e be 9c 7f 8c bf
       -0.002087085 -0.4446432 -0.21764871 -1.0976443
000040 01 a0 c5 3e 9a 76 28 3f e8 2a f5 3e 8a 4d a0 3d
       0.38598636 0.6580597 0.47884297 0.078272894
000050 17 3d b5 3e fb e0 db bc 99 3a ea bc 49 eb 40 3c
       0.3539817 -0.026840677 -0.028592395 0.011774846
000060 63 ed 1f 3d 9b 6d f1 3d 2a 75 5c 3e ff 2b 22 3e
       0.03904475 0.11788484 0.2152907 0.15837096
000070 56 49 00 bf 3c 08 6d bc bf f9 2e be 3f 9d 65 3e
       -0.501119 -0.014467295 -0.17087458 0.22423266
000080 ee b3 14 bc b0 86 72 be f4 ac 16 be 8f 19 42 bd
       -0.009076102 -0.23684192 -0.14714414 -0.047387656
000090 48 1b ca bd 24 80 00 3e 15 bf cc be a0 a7 2b 3e
       -0.09868485 0.12548882 -0.39989534 0.16763163
0000a0 54 5d 18 3e b5 a6 4b 3f 77 b5 37 bf 28 ed 00 3e
       0.14879352 0.7955125 -0.7176127 0.12590468
0000b0 16 2a 87 3d 30 af 15 3e c7 12 97 3d 18 67 cc 3c
       0.06599824 0.1461761 0.07376628 0.024951503
0000c0 4b a7 86 3d 76 f4 b5 be ea 53 b6 be ad 3d 94 be
       0.06574877 -0.3553807 -0.35610896 -0.28953305
0000d0 e3 6c 6c bd ff 53 1a be ea 2e 78 3e 99 ef 95 be
       -0.05772103 -0.15071104 0.24236646 -0.2928436
0000e0 aa 9f a5 3d 8a 4f 89 3d a2 92 ac bd 21 43 bd be
       0.08087094 0.06704624 -0.084264055 -0.36965278
0000f0 77 19 23 be 7c 6a 99 be c1 14 8a bd d7 bf 9b 3d
       -0.15927683 -0.29964054 -0.0674224 0.0760495
000100 48 ff e5 be 7c fe 8c 3e 56 90 e6 3d 4f e9 93 be
       -0.44921327 0.27537906 0.11257999 -0.28888938
000110 80 c5 8a 3e 56 60 b7 bc 3e 07 81 bd 41 71 32 be
       0.27103806 -0.022384804 -0.063002095 -0.17426015
000120 f0 3b e7 3d 54 48 5a 3c ab 26 a4 be b6 3d ee bd
       0.11290729 0.013322908 -0.3206075 -0.11632864
000130 1a fd a6 3e 19 70 53 3e 80 5e 75 3e 8a 84 00 3e
       0.32614976 0.2064823 0.2396183 0.1255056
000140 63 1e d2 be 47 65 58 3b f6 cb aa be 0a 9e 00 bf
       -0.41038808 0.003301935 -0.33358735 -0.5024115
000150 e7 ff e4 bd 28 22 d5 3d b8 52 f0 be 67 d0 6e bf
       -0.11181622 0.104069054 -0.4693811 -0.93286747
000160 ef d2 d1 be fd 33 82 3e 79 06 04 3f 8e e6 73 be
       -0.40981242 0.2543029 0.51572376 -0.23818418
000170 ef 8e eb bd 93 1b b9 be d6 a5 70 3e f9 53 43 bf
       -0.11501872 -0.3615385 0.23500761 -0.7630001
000180 a9 98 42 bf af 76 0c bf 09 23 94 bf 7c d2 f7 bd
       -0.7601419 -0.54868597 -1.1573192 -0.121006936
000190 b4 67 c9 be 29 80 3c 3d 02 97 40 3e ed 3c a5 bf
       -0.39336932 0.04602066 0.18807605 -1.2909218
0001a0 15 fb 9d be 16 11 20 bf d3 20 a6 be b0 d9 02 bf
       -0.30855623 -0.6252607 -0.32446918 -0.51113415
0001b0 42 e0 8c be 72 0e 1e 3d 82 64 b9 3c 4d 5f 27 bc
       -0.27514845 0.038587995 0.022630934 -0.010215593
0001c0 88 ec d3 bc 02 f4 5c 3e 60 fc 19 be e7 b6 fd be
       -0.025869623 0.21577457 -0.1503768 -0.49553606
0001d0 d3 5c 70 3d 6d 6d 83 be d8 cb de 3c 33 8a 3e bf
       0.058682274 -0.25669423 0.02719681 -0.74429625
0001e0 d8 0a bb bf 5a 1b 46 be 36 39 1f be 5f 71 8e be
       -1.4612684 -0.19346371 -0.15549168 -0.2782087
0001f0 d3 fc a1 be ae 01 0e bf a6 76 a5 bd ab 40 4b be
       -0.31638202 -0.55471313 -0.08079271 -0.19848888
000200 53 8c ca bd 3a 16 c6 be 39 28 21 bf 18 15 0a 3d
       -0.09890046 -0.38688833 -0.62952 0.033711523
000210 6d 99 9f bc bb e1 b6 be 49 59 de be 20 23 22 bf
       -0.019482339 -0.35719094 -0.43427494 -0.63334846
000220 a0 2e 46 bc 8d ce 2f bf c9 32 ae 3c 8c 5d d7 bd
       -0.012096077 -0.68674546 0.02126445 -0.105158895
000230 ea 01 64 bf 74 5c 0c 3e de d4 c7 be 55 b9 ea 3d
       -0.8906542 0.13707143 -0.39029592 0.114611305
000240 8e 7d 37 be 2a f7 ec bf 6b ca 81 3c dd 58 94 bd
       -0.17918989 -1.8512928 0.01584359 -0.07243512
000250 15 97 dd be 8d 65 b9 3e 50 cf cb be 88 ef df be
       -0.4327933 0.3621029 -0.39806604 -0.43737435
000260 bd 27 67 bf fa b7 45 be e1 8a 98 bd 5b 30 b9 3e
       -0.9029501 -0.19308463 -0.07448364 0.36169705
000270 d8 cf 79 bf 19 44 84 c0 eb 96 fa bc 49 44 2b be
       -0.9758277 -4.1333127 -0.030589541 -0.16725267
000280 28 2e 7d 3a 5d a6 0f bf f5 db b7 be 82 c3 56 be
       0.0009658062 -0.56113225 -0.3591 -0.20973018
000290 08 59 6e be 30 96 89 be 14 9d 3f bf 6d 91 8d bf
       -0.2327615 -0.26872396 -0.7484906 -1.1060005
0002a0 c9 df 34 3e 10 9c 58 be c4 69 20 3e d3 39 1f bf
       0.17663492 -0.21153283 0.15665346 -0.6219761
0002b0 cf 69 6a bf 2f a8 68 bc 47 b9 2d bf ef 0f c5 3e
       -0.915677 -0.014200254 -0.67860836 0.3848872
0002c0 b0 8d f1 be b3 d1 5e c0 3a e4 1b bd 6a 1c d0 be
       -0.4717841 -3.481549 -0.03805945 -0.40646678
0002d0 da 18 14 bd 84 ee 85 bf 3e cd 0e c0 2e 4d d4 bd
       -0.036156513 -1.0463414 -2.231277 -0.10366283
0002e0 4e fa 22 3d 12 eb 92 3d 99 82 f9 3d 9c 5c d7 3d
       0.03978949 0.07173742 0.12183113 0.10515711
0002f0 2a d9 ca 3d ae 14 0b be 2d 24 22 3f 16 17 5e bf
       0.09904702 -0.13582107 0.6333645 -0.86753976
000300 38 fa 98 bf 48 69 a4 bf 72 3b 32 c0 70 ca c7 bc
       -1.1951361 -1.2844629 -2.7848783 -0.024388522
000310 fd 4b a7 3d a2 48 12 3e 56 c3 8c 3d 48 f0 1b 3d
       0.081687905 0.1428552 0.06873195 0.038070947
000320 f6 e3 2d 3e e8 9f cd 3d 81 c4 9e 3d 8b 0c d7 3d
       0.16981491 0.10040265 0.07752324 0.10500439
000330 88 4d 8f bc 99 8a 08 3e f2 88 55 3e 16 9d 91 3e
       -0.017493024 0.13334121 0.20853022 0.2844016
000340 6b 7c 72 3e db c8 2e 3e f3 ee fa 3d 8e 78 a7 3d
       0.23680274 0.17068808 0.12252607 0.08177291
000350 30 b6 29 3e 23 8f a7 3d b9 e7 28 3b c3 22 69 3d
       0.16573405 0.08181598 0.0025772883 0.056917917
000360 14 ff 20 3e 5f da ae 3d 88 18 5e 3e 4f 13 e3 3d
       0.15722305 0.08537745 0.21689045 0.11087667
000370 0f 76 87 3b 4e e9 99 3b eb 26 0b 3d 71 e9 02 3e
       0.0041339467 0.0046970015 0.033972662 0.12784363
000380 a0 29 02 3e 5a 5f 67 3b 03 50 1a bd 4d 25 25 3d
       0.12711191 0.0035304637 -0.03767396 0.040318776
000390 ed 6c 5e 3d 38 e0 25 3d a3 e5 98 3d b0 50 23 3e
       0.0543031 0.040497035 0.07465675 0.15948749
0003a0 7b 13 c8 3d 2a 62 0c 3e eb 93 3e 3e ea 4b fe 3d
       0.097693406 0.13709322 0.18611114 0.12416823
0003b0 ef 8c be 3d 1b b2 07 3b ff e3 45 3d df 85 b4 3d
       0.09304225 0.0020705524 0.048313137 0.088145964
0003c0 2c 9b 95 3c 2c e0 27 bb 7d a5 0e 3f e2 6f 74 bf
       0.018262468 -0.0025615795 0.55721265 -0.9548322
0003d0 c6 b2 40 bf 82 9b 60 bf 7e 8b 43 c0 f2 7d e0 3c
       -0.75272787 -0.87737286 -3.055389 0.027403805
0003e0 69 f8 ec bc 9c 98 38 3c 25 55 69 3c a6 0c 3b bd
       -0.028927045 0.011266854 0.014241491 -0.04566636
0003f0 72 fe c6 3d 11 34 33 3d 42 fc e2 3d 1d 24 a9 3d
       0.097165 0.043750826 0.110832706 0.08258841

input.bias f4 [32]
000000 e8 9a b3 bd 17 1b 73 be a0 2e 88 be b8 11 e0 3c
       -0.087697804 -0.23740803 -0.26598072 0.027352199
000010 fd d5 79 3e d7 5f 85 3d 93 ad 81 3d 22 05 95 3c
       0.24398036 0.065124206 0.06331935 0.018190924
000020 6e de 07 3e ec 30 71 bd a5 84 6f be 4c 96 28 be
       0.13268444 -0.058884546 -0.23390444 -0.16463584
000030 3b e7 16 bd 2a 67 1b be 3a 41 39 3d 01 dd b5 be
       -0.036841612 -0.15176073 0.04522822 -0.35520175
000040 98 3a 26 bd aa 77 c8 3d 9b 72 e0 3e a5 71 c1 bd
       -0.040583223 0.09788449 0.43837437 -0.09445504
000050 5d 5b ed bd d0 44 78 bd 33 b5 61 be fa 59 d3 3d
       -0.11589692 -0.0606125 -0.22041778 0.10319896
000060 2e 86 a1 be 2e c4 a9 be 56 fe 2c 3e 34 f4 a9 bb
       -0.31547683 -0.33157486 0.16893896 -0.005186582
000070 ff 05 41 3e 97 5d cd be 29 42 83 be 22 3a 6a be
       0.18849944 -0.40110466 -0.25636414 -0.22873738

hidden.weight f4 [16, 32]
000000 68 37 81 bf 42 b7 e0 bc 22 c3 24 3f 45 d8 54 be
       -1.0095034 -0.027431134 0.6436025 -0.20785625
000010 dd 67 71 be fb c4 af bf 27 f9 07 bf d9 8c e4 be
       -0.23574777 -1.3731989 -0.5311455 -0.44638708
000020 25 2b 69 bf 04 a2 32 bd 53 f9 dd bd 9d 72 a1 3e
       -0.9108146 -0.04361154 -0.108385704 0.31532755
000030 35 de 6b 3e 91 42 25 be bd dc 10 bd e3 ae f5 3d
       0.23033984 -0.16138674 -0.035366762 0.119962476
000040 8e 3a f3 be 88 87 8e bb be 1a ab 3c 1b 03 86 bf
       -0.4750561 -0.0043496527 0.020886775 -1.0469698
000050 0a 45 2a bd 5e 9f 79 3b 36 43 f2 3e 8e 31 d5 3e
       -0.041569747 0.0038089375 0.47316903 0.4163937
000060 90 15 52 bf 35 f6 ef 3d c8 6b b1 3e fb 3b fd be
       -0.8206415 0.11716882 0.34652543 -0.49459824
000070 61 98 94 bf 25 96 aa 3c 4a 55 49 bf b2 99 19 bf
       -1.1609002 0.020823548 -0.78645766 -0.60000145
000080 04 16 2d 3e 46 74 a0 3e ed 38 b2 3e 08 9a a9 3d
       0.1690293 0.3133871 0.34809056 0.08281332
000090 90 d3 e0 3d 6f 20 b1 bf ad c6 99 bf 36 81 21 bf
       0.10977852 -1.3838023 -1.2013756 -0.63087785
0000a0 44 ef e9 bf 9a 9d c4 3e 18 c2 91 3e 7e 86 40 3f
       -1.8276143 0.3840149 0.28468394 0.7520522
0000b0 8e b9 91 3d 0a 97 c5 3d dc fb 02 be 76 45 11 be
       0.0711547 0.09647949 -0.12791389 -0.14186653
0000c0 1c 3b 99 3e b8 6e 14 3e 03 88 0f 3d 4d e0 d4 3c
       0.2992791 0.14495361 0.03504182 0.025985861
0000d0 22 59 0d 3e ca 91 82 bd b3 91 36 bd 8e a7 d1 3d
       0.13803533 -0.06375463 -0.044572543 0.10237037
0000e0 c0 2a 0e bf 4e ea 3c be c6 2b 79 3e cf 8e 42 bf
       -0.5553398 -0.18448755 0.24333104 -0.7599916
0000f0 32 42 53 bf 31 5d 64 be 4a ea a6 3e 48 36 5f 3d
       -0.8252288 -0.22301175 0.32600623 0.054495126
000100 f7 e7 8e be c4 dd c3 bd a3 f9 e3 3d ac a4 d5 be
       -0.2791135 -0.09563783 0.11131599 -0.41727197
000110 37 c5 fa 3d 87 52 c8 be 0a b9 33 3e 7b 1c a5 be
       0.12244647 -0.39125463 0.17551056 -0.3224829
000120 6a f7 07 be 4b f2 a6 3e 97 75 c4 3e f4 de 2e 3e
       -0.13277975 0.3260673 0.38370964 0.17077237
000130 31 d8 ee 3d b0 97 20 3a 7e a2 14 3e 59 b4 87 3e
       0.11662329 0.0006126119 0.14515111 0.26504782
000140 1d 7f f9 be cd 25 16 bf a9 97 bf bd c6 7f cf 3b
       -0.48729792 -0.5865143 -0.09355099 0.0063323705
000150 b4 78 41 be 3c bd a5 3b e4 af 76 3e b2 a2 24 3e
       -0.18893701 0.005057959 0.24090534 0.16077688
000160 ed 53 c6 3d 08 9e ed be f2 ea 6d 3b d0 48 4f 3f
       0.09683976 -0.4640963 0.0036303368 0.8097048
000170 40 81 5b be 70 1a b3 3e b5 e6 9b be 42 ab 1b 3f
       -0.21436024 0.34981108 -0.30449453 0.60808194
000180 0a ad 4e bd 43 e5 bf be dd 7d 45 be 90 d6 c6 3c
       -0.05045799 -0.374796 -0.19286294 0.024272233
000190 a9 2a 1e 3e 90 a0 09 be 05 86 7c 3e 0d df 06 be
       0.15445961 -0.13440156 0.246605 -0.13171025
0001a0 57 97 ac bd a5 f9 f5 bd 21 28 64 be 22 65 25 3e
       -0.08427303 -0.120105065 -0.22280933 0.1615186
0001b0 f2 37 86 be eb 4c 1e 38 a5 f9 b6 be 20 e7 a4 be
       -0.26214558 3.774177e-05 -0.3573734 -0.32207584
0001c0 9b 2f 62 bd b5 eb a5 3d e0 02 58 be 06 2c 27 be
       -0.05522118 0.08101598 -0.21094847 -0.16325387
0001d0 b6 51 26 bd 44 03 a1 3d d5 75 e3 bd 35 0d 34 be
       -0.04060527 0.07861951 -0.11106459 -0.17583163
0001e0 a6 c3 87 3d 3b f5 eb bd a6 c2 06 bd 5d 14 33 3e
       0.06629114 -0.115213834 -0.032900475 0.17488237
0001f0 0a d1 ad bd ed 91 3b 3e b3 58 d8 be 71 ec c8 3d
       -0.08487137 0.18317385 -0.42255172 0.098107226
000200 bb e7 43 be 75 ed a6 be 78 e1 1e bd 22 72 ba be
       -0.19131367 -0.3260304 -0.038789243 -0.364152
000210 9b 69 2c be 79 1f c5 be e1 e3 e7 be c0 7e 0e 3f
       -0.1683716 -0.38500574 -0.45291045 0.55662155
000220 bd 1f cf 3e 38 d1 3d 3e 22 af a4 bd f3 f2 b5 3e
       0.40453902 0.18536842 -0.080412164 0.35536918
000230 22 30 de bd 03 df ac bd 20 43 2a 3e 0f 50 d1 be
       -0.10849024 -0.084409736 0.16627169 -0.40881392
000240 0e 7f 74 bd c2 7a 8a 3d 28 bc 87 3b f1 e5 0e bd
       -0.05969148 0.067616954 0.004142303 -0.034887258
000250 f6 04 f8 bd 6d 2c 34 3d 57 f1 b1 3d d7 e0 4b 3d
       -0.12110321 0.04398768 0.0868861 0.04977497
000260 ea 4f 0f be e6 80 fc 3d 19 ba 6e bd f5 df ae 3e
       -0.13995329 0.12329273 -0.058282945 0.3415524
000270 20 74 d9 be ae 94 f8 bc 36 f5 27 3f 2e 61 7e bf
       -0.4247141 -0.030344333 0.6560854 -0.99367034
000280 49 99 f7 bc e2 50 d0 bd 68 b6 bd 3e 7a 37 36 bf
       -0.03022446 -0.10171677 0.37053227 -0.711784
000290 f0 53 b1 bd 95 a2 71 bf 2d bb 5e 3f 94 d8 ce be
       -0.08658588 -0.94388705 0.8700436 -0.4039961
0002a0 b1 11 01 bf 85 13 0d 3e b3 e8 ef bc fb 6a 3d 3c
       -0.5041762 0.13776977 -0.029285764 0.011561151
0002b0 01 ea a4 bd 44 ac d0 3e 95 35 56 bc 98 05 2b 3e
       -0.08052445 0.40756428 -0.013074298 0.16701353
0002c0 93 2c 19 bd a9 76 9c bb e3 bd f2 3c 2b c5 94 bd
       -0.037396025 -0.0047748876 0.02963156 -0.07264169
0002d0 35 09 95 3d 45 8c 6b 3d 3c 44 00 3d c3 1e eb be
       0.07277147 0.05750682 0.031315073 -0.45921907
0002e0 71 09 45 bf f3 ce a8 3e 65 80 ca bd e4 91 a6 be
       -0.7696753 0.3297039 -0.098877706 -0.3253318
0002f0 69 02 6d 3e c0 7e ce 3e e1 0f 9b 3e 99 70 42 3e
       0.2314545 0.40331078 0.30285552 0.18988265
000300 73 7d 95 bd b0 b6 dd bc f3 fb 23 bf e7 bf 9d bd
       -0.07299318 -0.027064651 -0.6405632 -0.07702618
000310 0a 78 9a be e7 06 d7 3e a5 c3 da bc 57 24 ea be
       -0.30169708 0.41997454 -0.026704619 -0.4573085
000320 14 9b 59 3e cf f1 25 bc ac 49 b1 3d c5 18 cf be
       0.21250564 -0.010128452 0.0865663 -0.40448585
000330 72 eb 94 b8 06 1c 49 bd ca 35 aa bd a1 39 19 bd
       -7.101045e-05 -0.04909899 -0.08311041 -0.037408475
000340 ac d7 23 3e 6e 71 18 bf 1a e4 48 3e 54 8b 29 3c
       0.16000241 -0.5954808 0.19618264 0.01034816
000350 39 63 85 be 38 a5 b2 bb 59 8d 50 bd 17 bf a1 3e
       -0.26052263 -0.0054518245 -0.05091605 0.31591102
000360 a6 aa 4b bd 1e 44 4c be 5d 6f 03 3e af 12 a3 3e
       -0.04972329 -0.1994786 0.1283545 0.31850192
000370 33 76 58 3e ea c0 be 3e ca c5 41 3f c3 5f c8 3e
       0.2113884 0.37256557 0.7569243 0.3913556
000380 86 d1 74 be 4c 79 24 3c 5e 4e 27 3e 7a 19 81 be
       -0.23908052 0.010038685 0.16338488 -0.2521475
000390 eb dd 9c be 7d 1a b0 3d 0e 1f 43 be 21 a7 bc be
       -0.3063806 0.08598802 -0.19054815 -0.3684626
0003a0 44 86 4a bf 1a fe 65 be 50 37 f4 3e 24 30 88 3e
       -0.79111123 -0.22460213 0.4769845 0.26599228
0003b0 a5 e2 08 be 97 ce af bd 6c 46 38 be b2 41 25 bf
       -0.13367708 -0.08584326 -0.17995614 -0.6455337
0003c0 ad b6 be 3e f4 03 21 bf 3c 2b 35 be 38 c2 c7 bb
       0.37248746 -0.62896657 -0.17692274 -0.0060961507
0003d0 3e 0d 37 be 0f 08 11 3e bd f5 11 bf f1 26 83 3d
       -0.17876145 0.1416323 -0.5701559 0.06403912
0003e0 86 71 b3 be 2e 5a 00 be c8 a6 b6 3d d5 e0 1c 3f
       -0.3504755 -0.12534401 0.0891853 0.61280566
0003f0 80 5f 01 3f 0a 22 c1 3c 66 a3 08 bf 67 39 4a be
       0.50536346 0.023575801 -0.53374326 -0.1974846

hidden.bias f4 [16]
000000 68 e2 07 3c b8 89 db be 72 be ac 3d 3e 7d 04 bd
       0.008293726 -0.4287851 0.08434762 -0.032346003
000010 a8 62 a9 3e 09 6c 4b 3e ef 2a da 3e c7 2d 97 3d
       0.3308308 0.19865431 0.4261088 0.07381778
000020 e1 03 3d 3f 9c b3 6c be 06 10 7e 3e 5a e0 5d 3d
       0.73834044 -0.2311539 0.248108 0.054169036
000030 7a d4 d1 be be 72 46 3f 2b dd 4d be 84 a4 2c 3f
       -0.4098242 0.7751883 -0.201039 0.6743853

output.weight f4 [4, 16]
000000 89 d7 72 3f ed 07 02 bf 35 b6 ed 3e 99 32 6d 3e
       0.9486013 -0.50793344 0.46428075 0.23163833
000010 13 c3 10 3f db 73 cf 3e d5 79 63 3e 0a a5 95 3e
       0.5654766 0.40518078 0.22214444 0.29227477
000020 19 64 d3 3e 29 7d cf be bd 19 ba 3e 92 64 1c bf
       0.41287306 -0.40525177 0.36347762 -0.6109096
000030 30 6d e8 be b8 94 7d 3e d9 8d eb 3d 52 06 9d 3e
       -0.45395803 0.24763763 0.11501665 0.30668885
000040 2a 65 6c 3f bd a0 9a be cc 5c 0f 3f 2f b2 4c be
       0.92341864 -0.3020076 0.5600097 -0.19989847
000050 3d f2 af 3e 55 8b 1b 3f bc 8c 53 3e e0 a3 a0 3e
       0.343645 0.6075948 0.20659155 0.31375027
000060 1a cb ce 3e 86 7d 49 be 88 66 88 3e 2f d2 e7 3d
       0.4038933 -0.1967679 0.26640725 0.11319386
000070 eb e7 dc be db 78 5f 3e 99 ec 41 be 0e 4a b1 3e
       -0.4314569 0.21823446 -0.18937911 0.34626812
000080 3b 49 e5 3e 3b 5e b2 bd 14 dc 07 3f 35 11 82 3e
       0.44782433 -0.08709379 0.5307019 0.25403753
000090 d9 d6 22 3f f0 1e 5a 3f aa c2 a8 3d 98 d8 02 3f
       0.6360908 0.85203457 0.08240254 0.51111746
0000a0 55 24 8c 3e ba 59 23 3e 75 bb 45 bd 12 f0 28 bf
       0.2737147 0.15952197 -0.048274476 -0.6599132
0000b0 63 a5 f6 be 85 23 18 3f 47 87 ca 3e c5 32 8c 3e
       -0.48173055 0.594292 0.39556333 0.27382484
0000c0 ee 56 96 3f 01 92 3c 3e 85 02 dc 3e a5 3c 86 be
       1.1745279 0.18415071 0.42970672 -0.26218143
0000d0 b5 56 72 3f 6e 15 10 3f 50 60 8a 3e 03 89 18 3f
       0.94663554 0.562827 0.27026606 0.59584063
0000e0 5b af 24 3e 93 86 50 be 77 e2 91 be d0 76 36 bf
       0.16082518 -0.20363836 -0.2849309 -0.71275043
0000f0 4a 2a 9f be 78 d1 79 3e 00 d2 f7 be 0b 63 d0 3e
       -0.31086951 0.24396312 -0.48402405 0.40700564

output.bias f4 [4]
000000 81 04 0e 3f 20 6d d8 3e ab 71 95 3e cb 2b 10 3f
       0.5547562 0.42270756 0.29188284 0.5631682
